Data/superfluid_density_B=_0.16_theta_in_(0.0-1.571)_phi_x_in_(-0.002-0.002)_Delta=0.08_lambda=8.76_points=16_N_phi=101_N=514.npz (npz, 6992 bytes, 16 tensors)

superfluid_density_xx f8 [16]
343.0418286780105 341.7072580095577 350.00853873972346 339.4244824541954 337.8892775444985 334.12740736044157 329.56117403256286 26.68849730670958
-14.983820308061585 -47.67739891910768 -78.77565847353439 -106.24053554116165 -128.0936835720354 -143.97944903613296 -155.02851950945941 -158.59937721006287
00000000: 7141 8c54 ab70 7540 264e c6ed 505b 7540
00000010: c87d 84f9 22e0 7540 ec27 1dae ca36 7540
00000020: 032b 177b 3a1e 7540 dce5 4cdc 09e2 7440
00000030: 8d53 9f91 fa98 7440 a4b3 075c 41b0 3a40
00000040: c287 a04b b7f7 2dc0 e5f4 fd01 b5d6 47c0
00000050: 832c 7063 a4b1 53c0 28b4 2eef 648f 5ac0
00000060: 10c2 b074 ff02 60c0 4649 81a5 57ff 61c0
00000070: a30d bfa1 e960 63c0 0266 1d19 2ed3 63c0

superfluid_density_xx_0 f8 [16]
157.96541443994428 154.92382829531522 146.36921204874378 130.31946071613672 108.444286222876 80.96741627686126 49.256415481658195 16.8761554983283
-16.417173108539544 -48.95225686719529 -78.77565847353439 -105.91107665394375 -128.0936835720354 -143.97944903613296 -154.896579127824 -158.59937721006287
00000000: b3d4 d2ac e4be 6340 f26f 5b00 905d 6340
00000010: 9954 c995 d04b 6240 3f05 ae05 394a 6040
00000020: 3654 7b2f 6f1c 5b40 2eaf f525 ea3d 5440
00000030: 7cf4 f538 d2a0 4840 d787 0bba 4be0 3040
00000040: b0f2 59db cb6a 30c0 62ff 928d e379 48c0
00000050: 832c 7063 a4b1 53c0 9a35 7414 4f7a 5ac0
00000060: 10c2 b074 ff02 60c0 4649 81a5 57ff 61c0
00000070: f808 b6c6 b05c 63c0 0266 1d19 2ed3 63c0

superfluid_density_yy f8 [16]
298.0034890631832 297.77529158496543 298.630182476735 300.80582081986364 302.38044872937957 306.87592282681396 309.04939180258947 -19.648176430045012
18.692899779951897 50.536223663974425 80.96741627686126 109.12925928478317 130.31946071613672 146.369243247699 154.72140115411108 157.96226126553648
00000000: 4044 8c4a 0ea0 7240 a624 2698 679c 7240
00000010: 6d81 383a 15aa 7240 013c 5fa4 e4cc 7240
00000020: d727 6851 16e6 7240 c66f a7c7 032e 7340
00000030: ff0c 0f4f ca50 7340 d414 f9e3 eea5 33c0
00000040: 8b4c 46e1 61b1 3240 440e 1efa a244 4940
00000050: 2eaf f525 ea3d 5440 4736 bcc8 4548 5b40
00000060: 3f05 ae05 394a 6040 5a24 37d7 d04b 6240
00000070: 8586 dfb7 1557 6340 fa35 23d8 cabe 6340

superfluid_density_yy_0 f8 [16]
-158.59973079822205 -154.89667064475933 -143.97940327766528 -128.0936835720354 -105.91107665394375 -78.77565847353439 -48.95225894712564 -16.417173108539544
16.8761554983283 49.25641340172785 80.96741627686126 108.444286222876 130.31946071613672 146.369243247699 154.92373677837992 157.96226126553648
00000000: 9198 a4fe 30d3 63c0 c9d0 a286 b15c 63c0
00000010: 5de5 8a45 57ff 61c0 10c2 b074 ff02 60c0
00000020: 9a35 7414 4f7a 5ac0 832c 7063 a4b1 53c0
00000030: 309d 059f e379 48c0 b0f2 59db cb6a 30c0
00000040: d787 0bba 4be0 3040 af56 8327 d2a0 4840
00000050: 2eaf f525 ea3d 5440 3654 7b2f 6f1c 5b40
00000060: 3f05 ae05 394a 6040 5a24 37d7 d04b 6240
00000070: 22a8 6e40 8f5d 6340 fa35 23d8 cabe 6340

superfluid_density_xy f8 [16]
0.0 4.64321207004664 12.154369899519287 13.381198615989819 18.233206053984073 23.190698199550344 49.37950679962737 223.3649358079911
158.39122818047096 151.4402465520508 138.03254650352994 118.52005380976445 93.07524565491015 64.18058442729978 32.47524676245217 0.0
00000000: 0000 0000 0000 0000 9bf8 542f a692 1240
00000010: 23d8 4b92 094f 2840 d9e9 0977 2cc3 2a40
00000020: 3f17 5764 b33b 3240 8d79 e298 d130 3740
00000030: 2d81 c6ad 93b0 4840 c10e dc8d adeb 6b40
00000040: af0c f6f0 84cc 6340 85e7 ef7f 16ee 6240
00000050: 5408 f79e 0a41 6140 4e46 c68f 48a1 5d40
00000060: 55c0 26d3 d044 5740 d85a fcb1 8e0b 5040
00000070: 8821 cbe2 d43c 4040 0000 0000 0000 0000

superfluid_density_xy_0 f8 [16]
0.0 32.78826952007634 64.18058598724754 93.07524617489274 118.26441373053302 138.03254598354735 151.1568383627063 157.8004577639448
157.8004577639448 151.1568394026715 138.03254650352994 118.26441321055043 93.07524565491015 64.18058442729978 32.788281479675845 0.0
00000000: 0000 0000 0000 0000 ac94 0004 e664 4040
00000010: 0556 87b8 8e0b 5040 0f14 55d5 d044 5740
00000020: 2c50 9127 ec90 5d40 77de df9d 0a41 6140
00000030: 9ed2 e2d1 04e5 6240 1cbf 9959 9db9 6340
00000040: 1cbf 9959 9db9 6340 5826 11d4 04e5 6240
00000050: 5408 f79e 0a41 6140 72fc 6225 ec90 5d40
00000060: 55c0 26d3 d044 5740 d85a fcb1 8e0b 5040
00000070: 08a0 5368 e664 4040 0000 0000 0000 0000

theta_values f8 [16]
0.0 0.10471975511965977 0.20943951023931953 0.3141592653589793 0.41887902047863906 0.5235987755982988 0.6283185307179586 0.7330382858376183
0.8377580409572781 0.9424777960769379 1.0471975511965976 1.1519173063162573 1.2566370614359172 1.361356816555577 1.4660765716752366 1.5707963267948966
00000000: 0000 0000 0000 0000 d5eb 7bf3 e9ce ba3f
00000010: d5eb 7bf3 e9ce ca3f e0f0 9c76 2f1b d43f
00000020: d5eb 7bf3 e9ce da3f 6573 2d38 52c1 e03f
00000030: e0f0 9c76 2f1b e43f 5a6e 0cb5 0c75 e73f
00000040: d5eb 7bf3 e9ce ea3f 5069 eb31 c728 ee3f
00000050: 6573 2d38 52c1 f03f 2232 65d7 406e f23f
00000060: e0f0 9c76 2f1b f43f 9daf d415 1ec8 f53f
00000070: 5a6e 0cb5 0c75 f73f 182d 4454 fb21 f93f

q_theta f8 [16]
-9.949619207754495e-05 -9.906366175264172e-05 -9.685394972179905e-05 -9.364670014011959e-05 -8.86270376206885e-05 -8.124687024532619e-05 -6.4336401439318e-05 -3.85078054378897e-05
-1.8104883774661107e-06 -1.5560619916956818e-06 0.0 -7.960840583669129e-07 0.0 0.0 -3.363982442790032e-07 0.0
00000000: be4d 6f90 1315 1abf ddc9 f2bf 0cf8 19bf
00000010: 1e1d a92f c263 19bf 3ae1 d30e 868c 18bf
00000020: f4de 98e9 a83b 17bf af77 389a 624c 15bf
00000030: 281e e3f5 8add 10bf c277 b61e 6e30 04bf
00000040: 00d7 e105 fd5f bebe 0075 df40 3c1b babe
00000050: 0000 0000 0000 0000 00bd 935b 4fb6 aabe
00000060: 0000 0000 0000 0000 0000 0000 0000 0000
00000070: 0050 e51f 4793 96be 0000 0000 0000 0000

gamma f8 []
9479.579623412641
00000000: a598 1931 ca83 c240

k_F f8 []
0.07306017683388658
00000000: a23a 245e 12b4 b23f

mu f8 []
50.6
00000000: cdcc cccc cc4c 4940

Delta f8 []
0.08
00000000: 7b14 ae47 e17a b43f

phi_x_values f8 [101]
-0.00014612035366777314 -0.00014319794659441767 -0.00014027553952106222 -0.00013735313244770674 -0.0001344307253743513 -0.00013150831830099582 -0.00012858591122764037 -0.0001256635041542849
-0.00012274109708092945 -0.00011981869000757398 -0.00011689628293421852 -0.00011397387586086305 -0.0001110514687875076 -0.00010812906171415212 -0.00010520665464079667 -0.0001022842475674412
-9.936184049408575e-05 -9.643943342073027e-05 -9.351702634737482e-05 -9.059461927401935e-05 -8.76722122006639e-05 -8.474980512730842e-05 -8.182739805395296e-05 -7.89049909805975e-05
-7.598258390724203e-05 -7.306017683388657e-05 -7.013776976053111e-05 -6.721536268717565e-05 -6.429295561382019e-05 -6.137054854046472e-05 -5.844814146710926e-05 -5.55257343937538e-05
-5.2603327320398336e-05 -4.9680920247042874e-05 -4.675851317368741e-05 -4.383610610033195e-05 -4.0913699026976486e-05 -3.7991291953621024e-05 -3.506888488026556e-05 -3.21464778069101e-05
-2.9224070733554637e-05 -2.6301663660199175e-05 -2.33792565868437e-05 -2.045684951348825e-05 -1.7534442440132774e-05 -1.4612035366777325e-05 -1.168962829342185e-05 -8.7672212200664e-06
-5.844814146710925e-06 -2.922407073355476e-06 0.0 2.922407073355449e-06 5.844814146710925e-06 8.767221220066373e-06 1.168962829342185e-05 1.4612035366777298e-05
1.7534442440132774e-05 2.0456849513488223e-05 2.33792565868437e-05 2.6301663660199148e-05 2.9224070733554624e-05 3.214647780691007e-05 3.506888488026555e-05 3.7991291953621e-05
4.091369902697647e-05 4.383610610033195e-05 4.67585131736874e-05 4.9680920247042874e-05 5.260332732039832e-05 5.55257343937538e-05 5.844814146710925e-05 6.137054854046472e-05
6.429295561382017e-05 6.721536268717565e-05 7.01377697605311e-05 7.306017683388657e-05 7.598258390724202e-05 7.89049909805975e-05 8.182739805395295e-05 8.474980512730842e-05
8.767221220066387e-05 9.059461927401935e-05 9.35170263473748e-05 9.643943342073027e-05 9.936184049408575e-05 0.00010228424756744117 0.00010520665464079664 0.00010812906171415212
0.0001110514687875076 0.00011397387586086302 0.0001168962829342185 0.00011981869000757397 0.00012274109708092945 0.00012566350415428487 0.00012858591122764034 0.00013150831830099582
0.0001344307253743513 0.00013735313244770677 0.0001402755395210622 0.00014319794659441767 0.00014612035366777314
00000000: b42d d347 fc26 23bf de5a b5fe ecc4 22bf
00000010: 0988 97b5 dd62 22bf 33b5 796c ce00 22bf
00000020: 5ee2 5b23 bf9e 21bf 880f 3eda af3c 21bf
00000030: b33c 2091 a0da 20bf dd69 0248 9178 20bf
00000040: 0897 e4fe 8116 20bf 6588 8d6b e568 1fbf
00000050: bae2 51d9 c6a4 1ebf 0e3d 1647 a8e0 1dbf
00000060: 6497 dab4 891c 1dbf b8f1 9e22 6b58 1cbf
00000070: 0e4c 6390 4c94 1bbf 62a6 27fe 2dd0 1abf
00000080: b800 ec6b 0f0c 1abf 0c5b b0d9 f047 19bf
00000090: 62b5 7447 d283 18bf b60f 39b5 b3bf 17bf
000000a0: 0c6a fd22 95fb 16bf 60c4 c190 7637 16bf
000000b0: b51e 86fe 5773 15bf 0a79 4a6c 39af 14bf
000000c0: 5fd3 0eda 1aeb 13bf b42d d347 fc26 13bf
000000d0: 0988 97b5 dd62 12bf 5ee2 5b23 bf9e 11bf
000000e0: b33c 2091 a0da 10bf 0897 e4fe 8116 10bf
000000f0: bae2 51d9 c6a4 0ebf 6497 dab4 891c 0dbf
00000100: 0e4c 6390 4c94 0bbf b800 ec6b 0f0c 0abf
00000110: 62b5 7447 d283 08bf 0c6a fd22 95fb 06bf
00000120: b61e 86fe 5773 05bf 60d3 0eda 1aeb 03bf
00000130: 0a88 97b5 dd62 02bf b43c 2091 a0da 00bf
00000140: bce2 51d9 c6a4 febe 104c 6390 4c94 fbbe
00000150: 60b5 7447 d283 f8be b81e 86fe 5773 f5be
00000160: 0888 97b5 dd62 f2be c0e2 51d9 c6a4 eebe
00000170: 60b5 7447 d283 e8be 1088 97b5 dd62 e2be
00000180: 60b5 7447 d283 d8be 80b5 7447 d283 c8be
00000190: 0000 0000 0000 0000 40b5 7447 d283 c83e
000001a0: 60b5 7447 d283 d83e 0088 97b5 dd62 e23e
000001b0: 60b5 7447 d283 e83e b0e2 51d9 c6a4 ee3e
000001c0: 0888 97b5 dd62 f23e b01e 86fe 5773 f53e
000001d0: 60b5 7447 d283 f83e 084c 6390 4c94 fb3e
000001e0: b8e2 51d9 c6a4 fe3e b03c 2091 a0da 003f
000001f0: 0888 97b5 dd62 023f 5cd3 0eda 1aeb 033f
00000200: b41e 86fe 5773 053f 0c6a fd22 95fb 063f
00000210: 60b5 7447 d283 083f b800 ec6b 0f0c 0a3f
00000220: 0c4c 6390 4c94 0b3f 6497 dab4 891c 0d3f
00000230: b8e2 51d9 c6a4 0e3f 0897 e4fe 8116 103f
00000240: b23c 2091 a0da 103f 5ee2 5b23 bf9e 113f
00000250: 0888 97b5 dd62 123f b42d d347 fc26 133f
00000260: 5ed3 0eda 1aeb 133f 0a79 4a6c 39af 143f
00000270: b41e 86fe 5773 153f 60c4 c190 7637 163f
00000280: 0a6a fd22 95fb 163f b60f 39b5 b3bf 173f
00000290: 60b5 7447 d283 183f 0c5b b0d9 f047 193f
000002a0: b800 ec6b 0f0c 1a3f 60a6 27fe 2dd0 1a3f
000002b0: 0c4c 6390 4c94 1b3f b8f1 9e22 6b58 1c3f
000002c0: 6497 dab4 891c 1d3f 0c3d 1647 a8e0 1d3f
000002d0: b8e2 51d9 c6a4 1e3f 6488 8d6b e568 1f3f
000002e0: 0897 e4fe 8116 203f dc69 0248 9178 203f
000002f0: b23c 2091 a0da 203f 880f 3eda af3c 213f
00000300: 5ee2 5b23 bf9e 213f 34b5 796c ce00 223f
00000310: 0888 97b5 dd62 223f de5a b5fe ecc4 223f
00000320: b42d d347 fc26 233f

Lambda f8 []
8.76
00000000: 85eb 51b8 1e85 2140

cut_off f8 []
0.08036619451727524
00000000: 19da 2701 e192 b43f

B f8 []
0.16
00000000: 7b14 ae47 e17a c43f
