Data/superfluid_density_B=_0.16_theta_in_(0.0-1.571)_phi_x_in_(-0.002-0.002)_Delta=0.08_lambda=8.76_points=16_N_phi=101_N=66.npz (npz, 6992 bytes, 16 tensors)

superfluid_density_xx f8 [16]
00000000: f82a 0dfc 0bd0 6f40 b286 ed67 e586 7640
00000010: cb58 f9e3 767b 7340 685e 108d 30ba 7740
00000020: 94ec eeb2 33df 7540 26e1 a2fd f586 7740
00000030: d6fa 3a6a c8d6 7740 f1b0 05db 8561 7540
00000040: c9ce 295f 69a9 7340 28e3 e5dc a89f 7440
00000050: aed2 3233 9123 7040 1ac0 deb7 4f52 7140
00000060: 87f2 2e98 928f 6f40 be01 46f5 a4b1 7040
00000070: 8976 793d ffcb 6940 0352 b895 cd60 7040
254.5014629609284 360.43100731643347 311.7165260067092 379.63685327905705 349.9501218159651 376.4350563395004 381.4239294341945 342.0951795790016
314.5882255204311 329.97872628974665 258.22294921734544 277.1444624615848 252.48664483231934 267.1027729735032 206.37490724299667 262.050191612245

superfluid_density_xx_0 f8 [16]
00000000: 7805 c13f 55a0 6940 a2a7 9176 20dc 6240
00000010: e7f4 57c4 d290 6640 fa9c 4a93 fd97 5f40
00000020: 6652 29fe 25ae 5f40 0516 bb11 b31e 5340
00000030: 19d6 bbdc 9bec 4d40 d5e8 1a6d 7e9a 4d40
00000040: 86e3 bbfc 92f2 1040 be71 f151 1000 36c0
00000050: 2d20 524d 3217 4ec0 9404 b64d 7a4c 54c0
00000060: bb2f 1a69 1891 57c0 e12d 3778 37e2 59c0
00000070: d004 5552 4d46 59c0 eb6c 9aa7 e6fe 5bc0
205.01040637683377 150.8789627880879 180.52572838954003 126.37485201155133 126.72106889758433 76.47967952032202 59.84850653812118 59.20698322118702
4.2368888368299675 -22.00024902481686 -60.1812225962643 -81.19496481681045 -94.26711490208884 -103.53463559521289 -101.09846933653466 -111.98282804566013

superfluid_density_yy f8 [16]
00000000: d656 2d8f cd60 7040 12a5 a28a fecb 6940
00000010: eefb af41 75b3 7040 9e03 4906 978f 6f40
00000020: a348 85a3 392a 7140 227a 8f37 9123 7040
00000030: 66de 8c05 7e9b 7440 3a9d f541 29c9 7340
00000040: a55e c5e2 1548 7540 7a9b 91e3 32d9 7740
00000050: e034 d1ff f586 7740 bf53 29b8 e0f7 7540
00000060: 96a9 3158 2eba 7740 f6b8 f7ec f673 7340
00000070: f61d 820e e586 7640 de79 c604 0cd0 6f40
262.05018537245394 206.3748219658524 267.2161270975474 252.48718561420986 274.6390719610592 258.2229533772062 329.71826701189855 316.57257266943964
340.50534321877996 381.5749240577494 376.4350584194308 351.4923631300298 379.63631457709687 311.2477845837269 360.43092203928916 254.50146712078907

superfluid_density_yy_0 f8 [16]
00000000: 2283 ef69 ecfe 5bc0 a4f6 bbc0 4e46 59c0
00000010: 1066 4ab8 36e2 59c0 a27e d371 1891 57c0
00000020: 9404 b64d 7a4c 54c0 93e4 6c2a 3217 4ec0
00000030: 58ad d674 1000 36c0 58c0 e513 94f2 1040
00000040: 7024 0090 7e9a 4d40 81af 1311 9cec 4d40
00000050: 9f51 a034 b31e 5340 6652 29fe 25ae 5f40
00000060: e0eb 039c fd97 5f40 1b6c 220a d390 6640
00000070: 5e38 48b2 1fdc 6240 d817 5862 3ba0 6940
-111.98317955388896 -101.09855669360928 -103.53458983674523 -94.26711698201919 -81.19496481681045 -60.181218436403604 -22.000251104747207 4.236892996690663
59.206987381047725 59.84851277791223 76.47968784004341 126.72106889758433 126.37485409148167 180.5257616684256 150.87886919122224 205.00724904256526

superfluid_density_xy f8 [16]
00000000: 675f 27cd 9d72 b13e 1249 50e2 2fae 1840
00000010: 0428 5ebe 95aa 1540 88e9 da68 352f 4140
00000020: 1207 7917 1be2 3240 589b 8f31 af4b 4e40
00000030: 1464 bb03 d10f 4440 9cde 0a4c fa6f 4c40
00000040: 837c e44b 6373 4c40 3e8f a151 800f 4440
00000050: 589b 8f31 af4b 4e40 fe1a 0350 cc15 3240
00000060: 1542 7e64 352f 4140 398d bdf3 00cb 0640
00000070: 663a 664a 36ae 1840 675f 27cd 9d72 a13e
1.0399651740790698e-06 6.170104538107141 5.416586851593824 34.36881743134569 18.883225886390456 60.591283984299196 40.123566118716695 56.87482595949879
56.90146778732835 40.12110348118448 60.591283984299196 18.085148812063373 34.368816911363105 2.849122909757764 6.170128977288732 5.199825870395349e-07

superfluid_density_xy_0 f8 [16]
00000000: 0000 0000 0000 0000 c775 2c1e 2daa 3f40
00000010: 9868 3b29 7109 5340 5ea9 5f5b 1abf 5640
00000020: 23ea 7317 d8f9 6040 97bf 94f5 5f1b 6040
00000030: 6e4e d5d4 f39d 6240 7dd3 928a 578a 6340
00000040: 5afd a98b 578a 6340 9224 bed3 f39d 6240
00000050: 74e9 abf6 5f1b 6040 0014 8b18 d8f9 6040
00000060: a555 3159 1abf 5640 f8c5 531e 7109 5340
00000070: 7f8c d2e6 2daa 3f40 675f 27cd 9d72 b1be
0.0 31.664750943998822 76.14753180314653 90.985983699245 135.8076283706624 128.85546378185674 148.9360145727291 156.3231861942003
156.3231867141829 148.93601405274654 128.85546430183933 135.807628890645 90.98598317926242 76.1475292032336 31.664762903598326 -1.0399651740790698e-06

theta_values f8 [16]
00000000: 0000 0000 0000 0000 d5eb 7bf3 e9ce ba3f
00000010: d5eb 7bf3 e9ce ca3f e0f0 9c76 2f1b d43f
00000020: d5eb 7bf3 e9ce da3f 6573 2d38 52c1 e03f
00000030: e0f0 9c76 2f1b e43f 5a6e 0cb5 0c75 e73f
00000040: d5eb 7bf3 e9ce ea3f 5069 eb31 c728 ee3f
00000050: 6573 2d38 52c1 f03f 2232 65d7 406e f23f
00000060: e0f0 9c76 2f1b f43f 9daf d415 1ec8 f53f
00000070: 5a6e 0cb5 0c75 f73f 182d 4454 fb21 f93f
0.0 0.10471975511965977 0.20943951023931953 0.3141592653589793 0.41887902047863906 0.5235987755982988 0.6283185307179586 0.7330382858376183
0.8377580409572781 0.9424777960769379 1.0471975511965976 1.1519173063162573 1.2566370614359172 1.361356816555577 1.4660765716752366 1.5707963267948966

q_theta f8 [16]
00000000: 4a1b 897d eaca 19bf a805 aa3f 573d 1abf
00000010: 86aa ad76 ddee 19bf 60ee c442 d3c5 19bf
00000020: 5602 f5c8 99df 19bf 8070 c8a9 ddc2 19bf
00000030: 7c78 39d7 1c76 19bf f4a2 27ab 7f81 19bf
00000040: eeb6 8b0c 7385 19bf 05bb 512c 9675 19bf
00000050: 8070 c8a9 ddc2 19bf ba5b 7911 d1d6 19bf
00000060: 60ee c442 d3c5 19bf fb0c 9a3b 3af1 19bf
00000070: a805 aa3f 573d 1abf 4a1b 897d eaca 19bf
-9.839111533792053e-05 -0.00010009617828112569 -9.892679888216281e-05 -9.831525739383831e-05 -9.86993420513197e-05 -9.827115940947047e-05 -9.7127447412389e-05 -9.729711272367017e-05
-9.735598281298736e-05 -9.711960872647522e-05 -9.827115940947047e-05 -9.856844951037962e-05 -9.831525739383831e-05 -9.896200108454663e-05 -0.00010009617828112569 -9.839111533792053e-05

gamma f8 []
00000000: a598 1931 ca83 c240
9479.579623412641

k_F f8 []
00000000: a23a 245e 12b4 b23f
0.07306017683388658

mu f8 []
00000000: cdcc cccc cc4c 4940
50.6

Delta f8 []
00000000: 7b14 ae47 e17a b43f
0.08

phi_x_values f8 [101]
00000000: b42d d347 fc26 23bf de5a b5fe ecc4 22bf
00000010: 0988 97b5 dd62 22bf 33b5 796c ce00 22bf
00000020: 5ee2 5b23 bf9e 21bf 880f 3eda af3c 21bf
00000030: b33c 2091 a0da 20bf dd69 0248 9178 20bf
00000040: 0897 e4fe 8116 20bf 6588 8d6b e568 1fbf
00000050: bae2 51d9 c6a4 1ebf 0e3d 1647 a8e0 1dbf
00000060: 6497 dab4 891c 1dbf b8f1 9e22 6b58 1cbf
00000070: 0e4c 6390 4c94 1bbf 62a6 27fe 2dd0 1abf
00000080: b800 ec6b 0f0c 1abf 0c5b b0d9 f047 19bf
00000090: 62b5 7447 d283 18bf b60f 39b5 b3bf 17bf
000000a0: 0c6a fd22 95fb 16bf 60c4 c190 7637 16bf
000000b0: b51e 86fe 5773 15bf 0a79 4a6c 39af 14bf
000000c0: 5fd3 0eda 1aeb 13bf b42d d347 fc26 13bf
000000d0: 0988 97b5 dd62 12bf 5ee2 5b23 bf9e 11bf
000000e0: b33c 2091 a0da 10bf 0897 e4fe 8116 10bf
000000f0: bae2 51d9 c6a4 0ebf 6497 dab4 891c 0dbf
00000100: 0e4c 6390 4c94 0bbf b800 ec6b 0f0c 0abf
00000110: 62b5 7447 d283 08bf 0c6a fd22 95fb 06bf
00000120: b61e 86fe 5773 05bf 60d3 0eda 1aeb 03bf
00000130: 0a88 97b5 dd62 02bf b43c 2091 a0da 00bf
00000140: bce2 51d9 c6a4 febe 104c 6390 4c94 fbbe
00000150: 60b5 7447 d283 f8be b81e 86fe 5773 f5be
00000160: 0888 97b5 dd62 f2be c0e2 51d9 c6a4 eebe
00000170: 60b5 7447 d283 e8be 1088 97b5 dd62 e2be
00000180: 60b5 7447 d283 d8be 80b5 7447 d283 c8be
00000190: 0000 0000 0000 0000 40b5 7447 d283 c83e
000001a0: 60b5 7447 d283 d83e 0088 97b5 dd62 e23e
000001b0: 60b5 7447 d283 e83e b0e2 51d9 c6a4 ee3e
000001c0: 0888 97b5 dd62 f23e b01e 86fe 5773 f53e
000001d0: 60b5 7447 d283 f83e 084c 6390 4c94 fb3e
000001e0: b8e2 51d9 c6a4 fe3e b03c 2091 a0da 003f
000001f0: 0888 97b5 dd62 023f 5cd3 0eda 1aeb 033f
00000200: b41e 86fe 5773 053f 0c6a fd22 95fb 063f
00000210: 60b5 7447 d283 083f b800 ec6b 0f0c 0a3f
00000220: 0c4c 6390 4c94 0b3f 6497 dab4 891c 0d3f
00000230: b8e2 51d9 c6a4 0e3f 0897 e4fe 8116 103f
00000240: b23c 2091 a0da 103f 5ee2 5b23 bf9e 113f
00000250: 0888 97b5 dd62 123f b42d d347 fc26 133f
00000260: 5ed3 0eda 1aeb 133f 0a79 4a6c 39af 143f
00000270: b41e 86fe 5773 153f 60c4 c190 7637 163f
00000280: 0a6a fd22 95fb 163f b60f 39b5 b3bf 173f
00000290: 60b5 7447 d283 183f 0c5b b0d9 f047 193f
000002a0: b800 ec6b 0f0c 1a3f 60a6 27fe 2dd0 1a3f
000002b0: 0c4c 6390 4c94 1b3f b8f1 9e22 6b58 1c3f
000002c0: 6497 dab4 891c 1d3f 0c3d 1647 a8e0 1d3f
000002d0: b8e2 51d9 c6a4 1e3f 6488 8d6b e568 1f3f
000002e0: 0897 e4fe 8116 203f dc69 0248 9178 203f
000002f0: b23c 2091 a0da 203f 880f 3eda af3c 213f
00000300: 5ee2 5b23 bf9e 213f 34b5 796c ce00 223f
00000310: 0888 97b5 dd62 223f de5a b5fe ecc4 223f
00000320: b42d d347 fc26 233f
-0.00014612035366777314 -0.00014319794659441767 -0.00014027553952106222 -0.00013735313244770674 -0.0001344307253743513 -0.00013150831830099582 -0.00012858591122764037 -0.0001256635041542849
-0.00012274109708092945 -0.00011981869000757398 -0.00011689628293421852 -0.00011397387586086305 -0.0001110514687875076 -0.00010812906171415212 -0.00010520665464079667 -0.0001022842475674412
-9.936184049408575e-05 -9.643943342073027e-05 -9.351702634737482e-05 -9.059461927401935e-05 -8.76722122006639e-05 -8.474980512730842e-05 -8.182739805395296e-05 -7.89049909805975e-05
-7.598258390724203e-05 -7.306017683388657e-05 -7.013776976053111e-05 -6.721536268717565e-05 -6.429295561382019e-05 -6.137054854046472e-05 -5.844814146710926e-05 -5.55257343937538e-05
-5.2603327320398336e-05 -4.9680920247042874e-05 -4.675851317368741e-05 -4.383610610033195e-05 -4.0913699026976486e-05 -3.7991291953621024e-05 -3.506888488026556e-05 -3.21464778069101e-05
-2.9224070733554637e-05 -2.6301663660199175e-05 -2.33792565868437e-05 -2.045684951348825e-05 -1.7534442440132774e-05 -1.4612035366777325e-05 -1.168962829342185e-05 -8.7672212200664e-06
-5.844814146710925e-06 -2.922407073355476e-06 0.0 2.922407073355449e-06 5.844814146710925e-06 8.767221220066373e-06 1.168962829342185e-05 1.4612035366777298e-05
1.7534442440132774e-05 2.0456849513488223e-05 2.33792565868437e-05 2.6301663660199148e-05 2.9224070733554624e-05 3.214647780691007e-05 3.506888488026555e-05 3.7991291953621e-05
4.091369902697647e-05 4.383610610033195e-05 4.67585131736874e-05 4.9680920247042874e-05 5.260332732039832e-05 5.55257343937538e-05 5.844814146710925e-05 6.137054854046472e-05
6.429295561382017e-05 6.721536268717565e-05 7.01377697605311e-05 7.306017683388657e-05 7.598258390724202e-05 7.89049909805975e-05 8.182739805395295e-05 8.474980512730842e-05
8.767221220066387e-05 9.059461927401935e-05 9.35170263473748e-05 9.643943342073027e-05 9.936184049408575e-05 0.00010228424756744117 0.00010520665464079664 0.00010812906171415212
0.0001110514687875076 0.00011397387586086302 0.0001168962829342185 0.00011981869000757397 0.00012274109708092945 0.00012566350415428487 0.00012858591122764034 0.00013150831830099582
0.0001344307253743513 0.00013735313244770677 0.0001402755395210622 0.00014319794659441767 0.00014612035366777314

Lambda f8 []
00000000: 85eb 51b8 1e85 2140
8.76

cut_off f8 []
00000000: 19da 2701 e192 b43f
0.08036619451727524

B f8 []
00000000: 7b14 ae47 e17a c43f
0.16
