Data/superfluid_density_B=_0.16_theta_in_(0.0-1.571)_Delta=0.08_lambda=8.76_points=16_N=514.npz (npz, 5950 bytes, 16 tensors)

superfluid_density_xx f8 [16]
000000 9f b5 5d d3 f4 66 75 40 c4 eb 5b cb c3 51 75 40
       342.4347718868757 341.1103013601935
000010 ff 11 c4 e9 92 e9 75 40 06 72 ea d1 49 18 75 40
       350.5983674677845 337.5180224569343
000020 57 df ab 85 b5 0c 75 40 aa 89 ba 2a fe b8 74 40
       336.79431693208375 331.56205246797856
000030 c2 24 e8 5b 2a 62 74 40 ec 69 d3 c8 0e 22 74 40
       326.13534155541504 322.1286094911909
000040 62 b7 6f 92 b7 cc 73 40 a9 8b 4c 1a aa 78 73 40
       316.794817387001 311.5415289869366
000050 06 5a 0a e1 76 37 73 40 c3 46 83 ba 91 00 73 40
       307.4665232090341 304.0355782630906
000060 71 d7 79 ea 91 d0 72 40 f9 b7 d7 fb 71 ae 72 40
       301.03562400431025 298.902828066493
000070 b6 62 55 0e bb 94 72 40 5e b9 c2 7a 30 a0 72 40
       297.29566796640154 298.01183582367037

superfluid_density_xx_0 f8 [16]
000000 b3 d4 d2 ac e4 be 63 40 f2 6f 5b 00 90 5d 63 40
       157.96541443994428 154.92382829531522
000010 99 54 c9 95 d0 4b 62 40 3f 05 ae 05 39 4a 60 40
       146.36921204874378 130.31946071613672
000020 36 54 7b 2f 6f 1c 5b 40 2e af f5 25 ea 3d 54 40
       108.444286222876 80.96741627686126
000030 7c f4 f5 38 d2 a0 48 40 d7 87 0b ba 4b e0 30 40
       49.256415481658195 16.8761554983283
000040 b0 f2 59 db cb 6a 30 c0 62 ff 92 8d e3 79 48 c0
       -16.417173108539544 -48.95225686719529
000050 83 2c 70 63 a4 b1 53 c0 9a 35 74 14 4f 7a 5a c0
       -78.77565847353439 -105.91107665394375
000060 10 c2 b0 74 ff 02 60 c0 46 49 81 a5 57 ff 61 c0
       -128.0936835720354 -143.97944903613296
000070 f8 08 b6 c6 b0 5c 63 c0 02 66 1d 19 2e d3 63 c0
       -154.896579127824 -158.59937721006287

superfluid_density_yy f8 [16]
000000 4b 06 29 13 89 9d 72 40 c1 48 77 65 6e 97 72 40
       297.8459655382655 297.4644522342242
000010 97 45 82 af 71 ae 72 40 3f 23 4a 49 67 ce 72 40
       298.9027552689308 300.9002163787845
000020 07 5d dc c6 b0 07 73 40 d4 30 f6 b0 a8 38 73 40
       304.48065839843224 307.54118438881164
000030 be 8a 47 82 4f 76 73 40 8e b3 32 45 5e ce 73 40
       311.3944113535507 316.8980152111552
000040 7c 63 51 46 5e 1c 74 40 63 16 f0 5d 93 65 74 40
       321.77301627914835 326.34847825798187
000050 5b 5e 7a a0 14 b5 74 40 d2 0b 81 83 51 0b 75 40
       331.3175358562491 336.7074008026949
000060 cf 39 65 96 3f 19 75 40 9d 9f 6e 9d 92 e9 75 40
       337.578024287618 350.5982946702223
000070 df 58 e4 5b c9 4f 75 40 13 24 14 f4 1c 71 75 40
       340.9866599006472 343.06956870906396

superfluid_density_yy_0 f8 [16]
000000 91 98 a4 fe 30 d3 63 c0 c9 d0 a2 86 b1 5c 63 c0
       -158.59973079822205 -154.89667064475933
000010 5d e5 8a 45 57 ff 61 c0 10 c2 b0 74 ff 02 60 c0
       -143.97940327766528 -128.0936835720354
000020 9a 35 74 14 4f 7a 5a c0 83 2c 70 63 a4 b1 53 c0
       -105.91107665394375 -78.77565847353439
000030 30 9d 05 9f e3 79 48 c0 b0 f2 59 db cb 6a 30 c0
       -48.95225894712564 -16.417173108539544
000040 d7 87 0b ba 4b e0 30 40 af 56 83 27 d2 a0 48 40
       16.8761554983283 49.25641340172785
000050 2e af f5 25 ea 3d 54 40 36 54 7b 2f 6f 1c 5b 40
       80.96741627686126 108.444286222876
000060 3f 05 ae 05 39 4a 60 40 5a 24 37 d7 d0 4b 62 40
       130.31946071613672 146.369243247699
000070 22 a8 6e 40 8f 5d 63 40 fa 35 23 d8 ca be 63 40
       154.92373677837992 157.96226126553648

superfluid_density_xy f8 [16]
000000 00 00 00 00 00 00 00 00 ef 3a ac 5e 98 21 12 40
       0.0 4.532807807218645
000010 8a 13 cb a0 37 9d 26 40 57 7e c1 50 78 4b 29 40
       11.307065033711996 12.64740230905515
000020 18 bb 98 59 86 8a 30 40 5f ac 9a 8e 67 85 33 40
       16.54111251810818 19.521111405145685
000030 d7 76 6a f8 5f 00 35 40 0b c5 23 81 ee ea 35 40
       21.001464391700974 21.917701789124333
000040 0d 5f 62 c6 95 de 35 40 e9 67 80 2e 90 0c 35 40
       21.86947288419383 21.049075037335488
000050 bb a9 84 03 cf 89 33 40 d6 07 fb 8e da 86 30 40
       19.538315029037886 16.5267724383228
000060 62 61 39 d7 ad 66 29 40 95 8c 5f ec 20 4f 21 40
       12.700545049433178 8.654548060096468
000070 42 98 a9 f0 0a 38 12 40 00 00 00 00 00 00 00 00
       4.554729233123057 0.0

superfluid_density_xy_0 f8 [16]
000000 00 00 00 00 00 00 00 00 ac 94 00 04 e6 64 40 40
       0.0 32.78826952007634
000010 05 56 87 b8 8e 0b 50 40 0f 14 55 d5 d0 44 57 40
       64.18058598724754 93.07524617489274
000020 2c 50 91 27 ec 90 5d 40 77 de df 9d 0a 41 61 40
       118.26441373053302 138.03254598354735
000030 9e d2 e2 d1 04 e5 62 40 1c bf 99 59 9d b9 63 40
       151.1568383627063 157.8004577639448
000040 1c bf 99 59 9d b9 63 40 58 26 11 d4 04 e5 62 40
       157.8004577639448 151.1568394026715
000050 54 08 f7 9e 0a 41 61 40 72 fc 62 25 ec 90 5d 40
       138.03254650352994 118.26441321055043
000060 55 c0 26 d3 d0 44 57 40 d8 5a fc b1 8e 0b 50 40
       93.07524565491015 64.18058442729978
000070 08 a0 53 68 e6 64 40 40 00 00 00 00 00 00 00 00
       32.788281479675845 0.0

theta_values f8 [16]
000000 00 00 00 00 00 00 00 00 d5 eb 7b f3 e9 ce ba 3f
       0.0 0.10471975511965977
000010 d5 eb 7b f3 e9 ce ca 3f e0 f0 9c 76 2f 1b d4 3f
       0.20943951023931953 0.3141592653589793
000020 d5 eb 7b f3 e9 ce da 3f 65 73 2d 38 52 c1 e0 3f
       0.41887902047863906 0.5235987755982988
000030 e0 f0 9c 76 2f 1b e4 3f 5a 6e 0c b5 0c 75 e7 3f
       0.6283185307179586 0.7330382858376183
000040 d5 eb 7b f3 e9 ce ea 3f 50 69 eb 31 c7 28 ee 3f
       0.8377580409572781 0.9424777960769379
000050 65 73 2d 38 52 c1 f0 3f 22 32 65 d7 40 6e f2 3f
       1.0471975511965976 1.1519173063162573
000060 e0 f0 9c 76 2f 1b f4 3f 9d af d4 15 1e c8 f5 3f
       1.2566370614359172 1.361356816555577
000070 5a 6e 0c b5 0c 75 f7 3f 18 2d 44 54 fb 21 f9 3f
       1.4660765716752366 1.5707963267948966

q_theta f8 [16]
000000 0b d5 2d 7d 79 2e 1a bf 08 31 35 de 22 2a 1a bf
       -9.987465391055412e-05 -9.981000726106218e-05
000010 d8 90 49 37 69 1f 1a bf 2a 03 67 39 71 1c 1a bf
       -9.965018927854689e-05 -9.960595193715381e-05
000020 d8 90 49 37 69 1f 1a bf e7 04 11 f6 e0 25 1a bf
       -9.965018927854689e-05 -9.974656633550718e-05
000030 08 31 35 de 22 2a 1a bf 4c 46 59 61 c4 1a 1a bf
       -9.981000726106218e-05 -9.958098993336737e-05
000040 c6 b3 58 83 e0 2c 1a bf e5 0c 55 b7 c6 13 1a bf
       -9.985084837955881e-05 -9.947681777071648e-05
000050 04 ff 5a 90 56 10 1a bf 0b d5 2d 7d 79 2e 1a bf
       -9.94255861668202e-05 -9.987465391055412e-05
000060 be dc 47 38 9f 16 1a bf d8 90 49 37 69 1f 1a bf
       -9.951922226735224e-05 -9.965018927854689e-05
000070 d8 90 49 37 69 1f 1a bf e5 0c 55 b7 c6 13 1a bf
       -9.965018927854689e-05 -9.947681777071648e-05

gamma f8 []
000000 a5 98 19 31 ca 83 c2 40
       9479.579623412641

k_F f8 []
000000 a2 3a 24 5e 12 b4 b2 3f
       0.07306017683388658

mu f8 []
000000 cd cc cc cc cc 4c 49 40
       50.6

Delta f8 []
000000 7b 14 ae 47 e1 7a b4 3f
       0.08

search_space f8 [1, 2]
000000 8f c4 bc 6b 7a ba 2c bf 8f c4 bc 6b 7a ba 2c 3f
       -0.00021918053050165974 0.00021918053050165974

Lambda f8 []
000000 85 eb 51 b8 1e 85 21 40
       8.76

cut_off f8 []
000000 19 da 27 01 e1 92 b4 3f
       0.08036619451727524

B f8 []
000000 7b 14 ae 47 e1 7a c4 3f
       0.16
